…
I tensorflow/stream_executor/dso_loader.cc:135] successfully opened CUDA library libcufft.so.8.0 locally
I tensorflow/stream_executor/dso_loader.cc:135] successfully opened CUDA library libcuda.so.1 locally
I tensorflow/stream_executor/dso_loader.cc:135] successfully opened CUDA library libcurand.so.8.0 locally
Using TensorFlow backend.
____________________________________________________________________________________________________
Layer (type)                     Output Shape          Param #     Connected to                     
====================================================================================================
lambda_1 (Lambda)                (None, 64, 64, 3)     0           lambda_input_1[0][0]             
____________________________________________________________________________________________________
convolution2d_1 (Convolution2D)  (None, 32, 32, 24)    1824        lambda_1[0][0]                   
____________________________________________________________________________________________________
maxpooling2d_1 (MaxPooling2D)    (None, 31, 31, 24)    0           convolution2d_1[0][0]            
____________________________________________________________________________________________________
convolution2d_2 (Convolution2D)  (None, 16, 16, 36)    21636       maxpooling2d_1[0][0]             
____________________________________________________________________________________________________
maxpooling2d_2 (MaxPooling2D)    (None, 15, 15, 36)    0           convolution2d_2[0][0]            
____________________________________________________________________________________________________
convolution2d_3 (Convolution2D)  (None, 8, 8, 48)      43248       maxpooling2d_2[0][0]             
____________________________________________________________________________________________________
maxpooling2d_3 (MaxPooling2D)    (None, 7, 7, 48)      0           convolution2d_3[0][0]            
____________________________________________________________________________________________________
convolution2d_4 (Convolution2D)  (None, 4, 4, 64)      27712       maxpooling2d_3[0][0]             
____________________________________________________________________________________________________
maxpooling2d_4 (MaxPooling2D)    (None, 3, 3, 64)      0           convolution2d_4[0][0]            
____________________________________________________________________________________________________
convolution2d_5 (Convolution2D)  (None, 2, 2, 64)      36928       maxpooling2d_4[0][0]             
____________________________________________________________________________________________________
maxpooling2d_5 (MaxPooling2D)    (None, 1, 1, 64)      0           convolution2d_5[0][0]            
____________________________________________________________________________________________________
flatten_1 (Flatten)              (None, 64)            0           maxpooling2d_5[0][0]             
____________________________________________________________________________________________________
dropout_1 (Dropout)              (None, 64)            0           flatten_1[0][0]                  
____________________________________________________________________________________________________
dense_1 (Dense)                  (None, 1164)          75660       dropout_1[0][0]                  
____________________________________________________________________________________________________
dense_2 (Dense)                  (None, 100)           116500      dense_1[0][0]                    
____________________________________________________________________________________________________
dense_3 (Dense)                  (None, 40)            4040        dense_2[0][0]                    
____________________________________________________________________________________________________
dense_4 (Dense)                  (None, 10)            410         dense_3[0][0]                    
____________________________________________________________________________________________________
dense_5 (Dense)                  (None, 1)             11          dense_4[0][0]                    
====================================================================================================
Total params: 327,969
Trainable params: 327,969
Non-trainable params: 0
____________________________________________________________________________________________________

Starting At:  combDir/
Epoch 1/7
W tensorflow/core/platform/cpu_feature_guard.cc:45] The TensorFlow library wasn't compiled to use SSE3 instructions, but these are available on your machine and could speed up CPU computations.
…
